<class 'tensorflow.python.framework.ops.EagerTensor'>
<class 'tensorflow.python.framework.ops.Tensor'>
<class 'tensorflow.python.framework.ops.Tensor'>
Model: "model"
__________________________________________________________________________________________________
Layer (type)                    Output Shape         Param #     Connected to                     
==================================================================================================
input_layer (InputLayer)        [(None, 256, 256, 3) 0                                            
__________________________________________________________________________________________________
conv_1 (Conv2D)                 (None, 128, 128, 32) 896         input_layer[0][0]                
__________________________________________________________________________________________________
bn_1 (BatchNormalization)       (None, 128, 128, 32) 128         conv_1[0][0]                     
__________________________________________________________________________________________________
lrelu_1 (LeakyReLU)             (None, 128, 128, 32) 0           bn_1[0][0]                       
__________________________________________________________________________________________________
conv_2 (Conv2D)                 (None, 64, 64, 64)   18496       lrelu_1[0][0]                    
__________________________________________________________________________________________________
bn_2 (BatchNormalization)       (None, 64, 64, 64)   256         conv_2[0][0]                     
__________________________________________________________________________________________________
lrelu_2 (LeakyReLU)             (None, 64, 64, 64)   0           bn_2[0][0]                       
__________________________________________________________________________________________________
conv_3 (Conv2D)                 (None, 32, 32, 64)   36928       lrelu_2[0][0]                    
__________________________________________________________________________________________________
bn_3 (BatchNormalization)       (None, 32, 32, 64)   256         conv_3[0][0]                     
__________________________________________________________________________________________________
lrelu_3 (LeakyReLU)             (None, 32, 32, 64)   0           bn_3[0][0]                       
__________________________________________________________________________________________________
conv_4 (Conv2D)                 (None, 16, 16, 64)   36928       lrelu_3[0][0]                    
__________________________________________________________________________________________________
bn_4 (BatchNormalization)       (None, 16, 16, 64)   256         conv_4[0][0]                     
__________________________________________________________________________________________________
lrelu_4 (LeakyReLU)             (None, 16, 16, 64)   0           bn_4[0][0]                       
__________________________________________________________________________________________________
conv_5 (Conv2D)                 (None, 8, 8, 64)     36928       lrelu_4[0][0]                    
__________________________________________________________________________________________________
bn_5 (BatchNormalization)       (None, 8, 8, 64)     256         conv_5[0][0]                     
__________________________________________________________________________________________________
lrelu_5 (LeakyReLU)             (None, 8, 8, 64)     0           bn_5[0][0]                       
__________________________________________________________________________________________________
flatten (Flatten)               (None, 4096)         0           lrelu_5[0][0]                    
__________________________________________________________________________________________________
mean (Dense)                    (None, 512)          2097664     flatten[0][0]                    
__________________________________________________________________________________________________
log_var (Dense)                 (None, 512)          2097664     flatten[0][0]                    
__________________________________________________________________________________________________
lambda (Lambda)                 (None, 512)          0           mean[0][0]                       
                                                                 log_var[0][0]                    
__________________________________________________________________________________________________
reshape (Reshape)               (None, 1, 1, 512)    0           lambda[0][0]                     
__________________________________________________________________________________________________
dense (Dense)                   (None, 1, 1, 4096)   2101248     reshape[0][0]                    
__________________________________________________________________________________________________
reshape_1 (Reshape)             (None, 8, 8, 64)     0           dense[0][0]                      
__________________________________________________________________________________________________
conv2d_transpose (Conv2DTranspo (None, 16, 16, 64)   36928       reshape_1[0][0]                  
__________________________________________________________________________________________________
batch_normalization (BatchNorma (None, 16, 16, 64)   256         conv2d_transpose[0][0]           
__________________________________________________________________________________________________
leaky_re_lu (LeakyReLU)         (None, 16, 16, 64)   0           batch_normalization[0][0]        
__________________________________________________________________________________________________
conv2d_transpose_1 (Conv2DTrans (None, 32, 32, 64)   36928       leaky_re_lu[0][0]                
__________________________________________________________________________________________________
batch_normalization_1 (BatchNor (None, 32, 32, 64)   256         conv2d_transpose_1[0][0]         
__________________________________________________________________________________________________
leaky_re_lu_1 (LeakyReLU)       (None, 32, 32, 64)   0           batch_normalization_1[0][0]      
__________________________________________________________________________________________________
conv2d_transpose_2 (Conv2DTrans (None, 64, 64, 64)   36928       leaky_re_lu_1[0][0]              
__________________________________________________________________________________________________
batch_normalization_2 (BatchNor (None, 64, 64, 64)   256         conv2d_transpose_2[0][0]         
__________________________________________________________________________________________________
leaky_re_lu_2 (LeakyReLU)       (None, 64, 64, 64)   0           batch_normalization_2[0][0]      
__________________________________________________________________________________________________
conv2d_transpose_3 (Conv2DTrans (None, 128, 128, 32) 18464       leaky_re_lu_2[0][0]              
__________________________________________________________________________________________________
batch_normalization_3 (BatchNor (None, 128, 128, 32) 128         conv2d_transpose_3[0][0]         
__________________________________________________________________________________________________
leaky_re_lu_3 (LeakyReLU)       (None, 128, 128, 32) 0           batch_normalization_3[0][0]      
__________________________________________________________________________________________________
conv2d_transpose_4 (Conv2DTrans (None, 256, 256, 3)  867         leaky_re_lu_3[0][0]              
==================================================================================================
Total params: 6,558,915
Trainable params: 6,557,891
Non-trainable params: 1,024
__________________________________________________________________________________________________
Train on 5184 samples, validate on 768 samples
Epoch 1/50
 256/5184 [>........
…
